model/HDFS/pre_train.pt (torch, 210797 bytes, 1 tensors)

lstm.weight_ih_l0 f4 [256, 1]
-0.053750604 0.009799154 -0.1835345 0.15998702 0.022028754 -0.04503591 0.15049112 0.0306001
-0.077397265 0.030421402 0.016065573 0.18833306 0.06306048 0.1773146 -0.055229552 0.0019219916
0.150162 0.039721236 -0.034088522 0.10665446 -0.19133255 0.05919019 0.02392015 -0.04875459
-0.0540717 -0.051763464 0.10833709 0.07699994 -0.061496772 -0.027697101 0.1153805 -0.07448738
-0.1195693 -0.033449013 0.104865886 -0.098084636 -0.037453182 -0.11242329 0.17066792 -0.050301846
0.02708501 -0.0016769664 -0.08970476 -0.1825506 0.17286439 0.011562624 -0.19283062 0.16164589
0.1324245 0.1066414 -0.013170039 0.08726616 -0.11042454 -0.009541812 0.036529757 0.05539567
-0.008563055 0.017836146 0.03606251 -0.021858584 -0.13192609 0.15185782 0.098380096 0.07176509
0.008140326 0.080881126 0.0040379134 0.19745456 0.015131868 0.11993361 0.030942535 0.028337246
0.052522946 0.0050587947 0.03535746 0.018440675 0.052920174 0.10878036 0.104305 0.11525494
0.11622625 0.104117766 -0.053293556 0.024882922 -0.14604835 -0.051880516 -0.0716957 0.07885286
0.09939406 0.119233415 -0.014578149 -0.0032132566 0.108255684 0.11620137 0.021408547 0.032412216
0.019558853 0.108199246 0.051979017 -0.13406877 0.049198437 -0.009294735 0.053259842 0.08437056
0.0035384637 0.08888892 0.07137867 0.09675223 0.011266585 -0.01051722 -0.20283206 -0.066840805
0.17396763 0.07790163 0.18779784 0.019073678 -0.1244067 0.08942073 0.20251712 -0.044802047
0.057612248 0.0025578693 0.12572965 0.14328599 -0.04165134 -0.019629007 0.039314102 0.0603215
-0.08303311 -0.109436095 0.19722301 -0.06688218 -0.16005282 0.07588743 0.14099863 0.1158495
-0.03569507 0.07299285 0.17497441 0.0578261 -0.016595244 0.026501877 0.19466975 -0.012814241
-0.07933417 -0.065187834 0.036182597 -0.17589153 0.1713555 -0.09105696 -0.028155493 0.087299176
0.12403849 -0.0042039207 0.03469452 -0.1137378 -0.06638519 0.09728886 -0.07481595 0.07342778
0.18030144 -0.13776891 -0.100898445 0.047645222 0.050391562 -0.036408152 -0.05869097 -0.06301656
0.04975273 0.036191728 -0.15240648 0.1880246 -0.099535234 -0.11748784 0.16167709 0.11291606
-0.1025522 0.11943642 0.18281195 0.16298842 -0.09938744 0.043144464 0.049854133 -0.12746204
0.044925224 -0.15920775 -0.087171555 0.1660152 -0.1589618 -0.100956805 -0.117993504 -0.090116985
0.11416505 0.07105767 -0.04388819 0.06884306 0.028440457 0.26112795 0.12587674 0.078555785
0.05842713 0.04254491 0.02283558 -0.15037039 0.20083833 0.110419504 -0.04805017 0.18908326
-0.15412743 0.12789217 0.031960465 0.08823476 0.10957447 0.08580798 0.079326704 -0.09685903
-0.12857965 0.022510443 0.08328417 0.020594027 0.060344104 -0.2131316 -0.13394438 0.14551464
-0.00892062 -0.12691362 -0.0020154195 0.08723172 0.010071855 -0.016537614 -0.13693295 0.08763307
0.13246173 0.21173264 0.1968148 0.06676525 -0.17624351 0.07544942 0.09474127 0.03535619
0.03688499 0.038932733 -0.09561838 -0.15498716 -0.10684029 0.1053833 -0.18677971 0.1045418
-0.15107232 -0.004528994 -0.110354684 -0.113332786 -0.021758556 -0.18403946 0.09103001 -0.02860879
00000000: 9829 5cbd a18c 203c 78f0 3bbe a3d3 233e
00000010: a575 b43c 9377 38bd 581a 1a3e 10ad fa3c
00000020: 7582 9ebd 4e36 f93c f39b 833c 62da 403e
00000030: da25 813d f591 353e 6238 62bd 56eb fb3a
00000040: 11c4 193e bcb2 223d 68a0 0bbd a76d da3d
00000050: aeec 43be 6a71 723d 31f4 c33c e5b2 47bd
00000060: 497a 5dbd ed05 54bd d6df dd3d 25b2 9d3d
00000070: 0ae4 7bbd 08e5 e2bc 9d4c ec3d d78c 98bd
00000080: c0e0 f4bd d501 09bd edc3 d63d 99e0 c8bd
00000090: 8268 19bd 2f3e e6bd 92c3 2e3e 4f09 4ebd
000000a0: 62e1 dd3c a8cd dbba 21b7 b7bd 8bee 3abe
000000b0: 5d03 313e 2971 3d3c 6475 45be 8086 253e
000000c0: 4a9a 073e ce66 da3d 26c7 57bc 9ab8 b23d
000000d0: 4326 e2bd 4355 1cbc 3aa0 153d 92e6 623d
000000e0: 0e4c 0cbc 1c1d 923c 48b6 133d c610 b3bc
000000f0: a217 07be 9e80 1b3e 817b c93d 93f9 923d
00000100: 005f 053c 01a5 a53d 7950 843b 8731 4a3e
00000110: a8eb 773c c19f f53d 337b fd3c 8323 e83c
00000120: 4d22 573d 3fc4 a53b fcd2 103d e610 973c
00000130: d3c2 583d 3dc8 de3d dc9d d53d c80a ec3d
00000140: 0708 ee3d b23b d53d 584a 5abd 45d7 cb3c
00000150: b38d 15be aa80 54bd 32d5 92bd 9c7d a13d
00000160: 1d8f cb3d a630 f43d 30d9 6ebc 8095 52bb
00000170: 28b5 dd3d fcfa ed3d fa60 af3c acc2 043d
00000180: e339 a03c 9197 dd3d f3e7 543d 5349 09be
00000190: 4d84 493d f248 18bc fe26 5a3d 79ca ac3d
000001a0: 92e5 673b 650b b63d fb2e 923d 0826 c63d
000001b0: 7c97 383c 6b50 2cbc 35b3 4fbe d5e3 88bd
000001c0: 9224 323e e48a 9f3d 144e 403e 6740 9c3c
000001d0: f1c8 febd 3722 b73d a660 4f3e 5a82 37bd
000001e0: d2fa 6b3d eda1 273b 46bf 003e 90b9 123e
000001f0: 989a 2abd 03cd a0bc d307 213d ad13 773d
00000200: 430d aabd 0820 e0bd d4f4 493e 86f9 88bd
00000210: e3e4 23be de6a 9b3d f261 103e 8142 ed3d
00000220: fe34 12bd 467d 953d 7e2c 333e 10db 6c3d
00000230: c0f2 87bc 771a d93c 8257 473e d3f2 51bc
00000240: f479 a2bd 3381 85bd 3434 143d e91c 34be
00000250: d177 2f3e 127c babd 59a6 e6bc e9c9 b23d
00000260: e407 fe3d 0bc1 89bb d71b 0e3d 5def e8bd
00000270: f5f4 87bd 623f c73d 1b39 99bd 4e61 963d
00000280: f1a0 383e 4b13 0dbe d8a3 cebd a327 433d
00000290: 6267 4e3d b720 15bd f165 70bd d40e 81bd
000002a0: 85c9 4b3d c73d 143d 7210 1cbe 8589 403e
000002b0: 21d9 cbbd 779d f0bd ae8e 253e 8940 e73d
000002c0: e306 d2bd 159b f43d 0e33 3b3e 70e6 263e
000002d0: a48b cbbd 40b8 303d d933 4c3d 6985 02be
000002e0: 8303 383d 5b07 23be 0087 b2bd e3ff 293e
000002f0: e2c6 22be 71c2 cebd 94a6 f1bd 418f b8bd
00000300: 5ecf e93d af86 913d 1ac4 33bd 97fd 8c3d
00000310: f6fb e83c 90b2 853e d5e5 003e dbe1 a03d
00000320: 4951 6f3d 9243 2e3d af11 bb3c b2fa 19be
00000330: 90a8 4d3e 9f23 e23d 41d0 44bd 0b9f 413e
00000340: 95d3 1dbe 2af6 023e fae8 023d 6db4 b43d
00000350: 9468 e03d 18bc af3d 0a76 a23d 075e c6bd
00000360: 62aa 03be d267 b83c e490 aa3d ceb4 a83c
00000370: 612b 773d 2c3f 5abe b728 09be ca01 153e
00000380: cb27 12bc a5f5 01be 2115 04bb 8ba6 b23d
00000390: 6c04 253c e479 87bc 2738 0cbe f878 b33d
000003a0: 0ca4 073e 71d0 583e d289 493e 38bc 883d
000003b0: 2e79 34be 3a85 9a3d b607 c23d a7d1 103d
000003c0: b714 173d ee77 1f3d 92d3 c3bd f4b4 1ebe
000003d0: 15cf dabd 33d3 d73d 2e43 3fbe 031a d63d
000003e0: b4b2 1abe f567 94bb a301 e2bd 051b e8bd
000003f0: 003f b2bc d774 3cbe f16d ba3d fb5c eabc
